checkpoint_dqn.pth (torch_old, 28539 bytes, 6 tensors)

net.0.weight f4 [64, 37]
00000000: a161 bfbb c8d8 92bd 09be 8fbd e7fc 23bd
00000010: 602f 333c 87d3 1abe 3caa 0f3e 2c7d cd3d
00000020: ad71 fb3d 9db5 623e ba06 e0bc f2b7 06bd
00000030: 2e7a 59be 700b a5bd ad75 cdbd 149f d13d
00000040: ca4d 253d 9aad 3cbc de06 d23b 9158 9d3d
00000050: 60f3 de3e 4132 2fbf 4e12 9abe a364 f9be
00000060: 9c63 33c0 c19e 1dbe bdac 7fbd 68b0 1b3e
00000070: 500d ba3d 178f 023d 6056 d0bd b0ce 253c
00000080: f81a ac3d f4bc 7c3d af25 603d ddd7 bbbc
00000090: 3fec 2d3c 143f a13e 38c7 8b3e 28e9 24be
000000a0: 1aca 34be 72f4 3cbf f9e2 52be 28ea b9bd
000000b0: 2173 8bbc 5224 31be 1cb5 58bf c836 92bd
000000c0: eda1 debd 74c9 eb3d 30e6 153e 4216 b03e
000000d0: f621 67be c9d4 733e 4689 6c3e c8ac 30be
000000e0: 7614 00be 719f 93be 036f 00bc 6922 e73d
000000f0: e03d 0ebf d787 88be 038e a9be ad18 dabc
00000100: de40 b93e 3163 9dbe 7b53 d3be fe62 07be
00000110: e46f 493e 9846 0f3e 7fad 0abe a484 413d
00000120: 6beb e73c 55b1 f8bc e8c8 73be 7c32 b53c
00000130: cd7c cc3d 9b56 2e3d 2120 1cbe 0c31 853e
00000140: 3158 60bd 3f63 36be ec47 6b3e 458d adbe
00000150: 1e70 683d 5a25 4dbe 6953 94bd f7ee 97be
00000160: 6ae0 29bf 37b2 b7be 9336 0cbf 627b e73e
00000170: 5088 5fbe ebd9 3a3b 0bc7 d1be 7883 50bc
00000180: 7379 b2bd dcaf 7d3e f82e 8bbe 6d85 dfbe
00000190: 77a8 8dbd 9494 ab3e 983a 36bd aa46 51bf
000001a0: bc88 53be 241f ce3d 5fd1 3abd 2f5a 7ebe
000001b0: 5103 a43e a652 6dbe bb75 fbbd 8c24 db3d
000001c0: 77af 15bf 4d69 433e 769c a1be 1ffa 2fbf
000001d0: c394 fbbe 23df 38be 9d3c 2c3e ae92 f13c
000001e0: 2cdb 3b3d 9a40 b4be 4044 20bd 5fc8 f4bd
000001f0: 48d3 7d3e b5d3 913e 6726 1cbd b039 acbe
00000200: d8da 69bd fee1 8cbe 2b0b 1bbd e46d 02bd
00000210: 2d0c 2f3e ec8e 0bbe e0ba c4bd 5dfb 7a3d
00000220: 7a37 523d d44f cdbc 1efb 603d a80f 6bbd
00000230: 5732 b73e 735d b0bd fff0 073d abd3 283e
00000240: e2a2 a1be cb97 79bf fb82 143e ad11 2dbd
00000250: d58a 23be 98a5 87be dac4 92be 8a97 9ebe
00000260: 3f5f 333e 03cd aabe 9346 67bd 47c1 dfbc
00000270: 1329 9c3e 1505 943c 72f4 023d 3766 9bbc
00000280: 2130 07bf f7a4 cdbe 11ba 61be 4870 89be
00000290: e2da 87be f053 ccbd 96a8 273d 177e 4c3d
000002a0: 3db9 14be c267 e0be 5025 15be 1572 bc3d
000002b0: 2fff b3bd b16f 5fbe 15d7 2bbd 5289 f3bc
000002c0: e69d b9bc b7ab a2be 94cd 60be 093d cdbb
000002d0: c5f6 19bd 7a53 28bd cc5e 7abd b586 36bd
000002e0: 59d2 aa3d 5828 d2bd f3fd e93c 9d81 f6be
000002f0: 12e7 7ebe 83ea 2a3d 49b8 7abe 3e8a 843e
00000300: e13e 053e 728a 78bd 165f 78be 8163 9fbe
00000310: 1427 2b3c 275e c2bd 9675 11be afb5 083e
00000320: afe0 2abf 27eb ca3d f7ec 6cbe f84b 94bd
00000330: 9246 86be 1915 3abe 73cf 8a3d 6ce0 8e3c
00000340: 71fa 52bc 6df6 263e 1a63 30bf 62f6 6e3e
00000350: a87f 92be 3b89 cabe 83fd cf3d 7d12 b63e
00000360: 82e4 65bf e6bc 24bf 1440 1cbf f725 adbf
00000370: 06d3 14be ff96 353b baf4 153d 5e2b 02bc
00000380: c6ee dabc 865e b03c 3a34 61be 2aa6 9bbe
00000390: 2635 7b3e 1889 c73d 328c 2cbf f372 05bc
000003a0: 5331 0abd 7b20 b9bd b67a 083e f70d 8d3d
000003b0: e8c1 cdbd 93eb 693d 26d6 ce3e d17c d13c
000003c0: ba75 fabe a041 083e 878a 54bf f593 ec3d
000003d0: 1e2e a43e 49fb e8bd e2db 00bf a541 fd3d
000003e0: 8d86 303d e95b 15bd c0d7 e9be d5ae 51be
000003f0: a9a9 bcbe 416c e53c 54be 0f3e b2d3 b9be
-0.0058404957 -0.07170254 -0.07018668 -0.04003611 0.010936588 -0.15119754 0.14029783 0.1003364
0.12277541 0.22139592 -0.027346957 -0.032890268 -0.21238014 -0.08058822 -0.100322105 0.1023542
0.04035739 -0.011515999 0.00640951 0.07682908 0.43545055 -0.68436056 -0.3009209 -0.48709592
-2.8029547 -0.15392591 -0.062420595 0.15204012 0.090845704 0.031874742 -0.10172725 0.010120079
0.084035814 0.061703637 0.054723438 -0.02293008 0.0106154075 0.31493437 0.2730043 -0.16104567
-0.1765522 -0.73810494 -0.20594396 -0.09077865 -0.017022671 -0.17299011 -0.8465135 -0.07139355
-0.10870729 0.115130335 0.14638591 0.3439198 -0.22571549 0.2381164 0.2309924 -0.17253411
-0.12507805 -0.28832582 -0.007838967 0.1128586 -0.55563164 -0.26666138 -0.3311616 -0.026623094
0.36182302 -0.3073974 -0.41274628 -0.13221356 0.19671589 0.13991773 -0.13542746 0.047245637
0.028310498 -0.030357996 -0.23807108 0.0221188 0.09984741 0.042563062 -0.15246631 0.26013982
-0.054771606 -0.17811297 0.22976655 -0.33896843 0.05674755 -0.2003378 -0.07242472 -0.29674503
-0.66358054 -0.35878155 -0.54770774 0.4521132 -0.21829343 0.0028511237 -0.4097217 -0.012726657
-0.08714571 0.24774116 -0.27184272 -0.43656483 -0.06916898 0.33511794 -0.044489473 -0.8174845
-0.20657629 0.10064533 -0.045609828 -0.2483909 0.3203378 -0.23176059 -0.12278315 0.1070033
-0.58470863 0.19083138 -0.31564683 -0.6874103 -0.49136934 -0.1805387 0.16819997 0.029488888
0.045863315 -0.35205537 -0.03912759 -0.1195228 0.24787629 0.28481832 -0.03812256 -0.33637762
-0.05709347 -0.27516168 -0.037852447 -0.03184308 0.17094488 -0.13628739 -0.09605956 0.061274875
0.051322438 -0.02506248 0.054926984 -0.057387978 0.35780594 -0.08611574 0.033188816 0.16486995
-0.31569582 -0.9749724 0.1450309 -0.042253185 -0.15970929 -0.26493526 -0.2866581 -0.3097499
0.17516802 -0.33359537 -0.05646379 -0.027313842 0.30500087 0.01806883 0.031971402 -0.018969638
-0.52807814 -0.4016492 -0.22043635 -0.26843476 -0.26534182 -0.09976947 0.04093226 0.049924936
-0.14523788 -0.4382916 -0.14565015 0.09201447 -0.08788907 -0.2181995 -0.041953165 -0.029728565
-0.0226583 -0.31771633 -0.21953422 -0.0062633795 -0.037588853 -0.041095234 -0.06112556 -0.04456206
0.08340902 -0.10261601 0.028563475 -0.48145762 -0.24892834 0.041727554 -0.24484362 0.2588672
0.13012268 -0.060678907 -0.24255022 -0.31130603 0.010446329 -0.094906144 -0.14205012 0.13350557
-0.6674909 0.09908133 -0.2313727 -0.072410524 -0.26225716 -0.1817211 0.06777849 0.017440997
-0.012877093 0.16304941 -0.68901217 0.23336175 -0.2861302 -0.39557824 0.101557754 0.3556098
-0.898018 -0.64350736 -0.61035275 -1.3527211 -0.14533624 0.002770841 0.036610343 -0.00794491
-0.026725184 0.021529447 -0.21992579 -0.3040021 0.24531993 0.097429454 -0.6740142 -0.008145082
-0.033738445 -0.09039398 0.1332806 0.06887429 -0.1004675 0.057109427 0.40397757 0.025572212
-0.48917943 0.13306284 -0.83023876 0.11551658 0.32066435 -0.11376054 -0.50335515 0.12366036
0.043097068 -0.036464605 -0.45672417 -0.2047685 -0.3684819 0.028005721 0.14037448 -0.36294323

net.0.bias f4 [64]
00000000: 1d1e a93d bc6e 42bd 336c 6cbe e5b1 38be
00000010: e23b 40bd 4e01 cebd 7f08 06be 4417 083d
00000020: 4f3a 473e 7b7b a7bd 1ff8 a03d 05f4 8fbc
00000030: 15f2 963e 1b31 2c3e 1334 30be 9528 26bd
00000040: ef48 83bd 7e1c 69bd eff9 36bd 3675 7dbe
00000050: 52c5 57be 98c5 933d 9849 c83b e00b c1bd
00000060: f120 64be 00f6 29bd ad7c 9fbc f716 aabd
00000070: 5254 1c3e 84a0 713e 048b 26be 8168 ecbd
00000080: 224e bf3d 9e07 a9bc a857 47be add3 dabd
00000090: 42de 0cbe de52 90bd 97de 673d 2558 9dbe
000000a0: f2be 8ebc 6d8c b8bd 82b6 a8bd 937d b83e
000000b0: 8f7b 22bd 4cf0 27be b698 9c3c 1890 e9bd
000000c0: f078 61be 2d01 503d 2cda 8ebe 2c49 753d
000000d0: e044 21bd 568c 02be 189a 86be 60b2 79bd
000000e0: 2bbd cebd ea13 943c a56c 3abe a314 28be
000000f0: 34aa 9abc 5036 5b3e d088 a73e 370a 0abd
0.08257697 -0.047468886 -0.2308815 -0.18036611 -0.04693211 -0.100588426 -0.13089179 0.033225313
0.19455837 -0.08177849 0.07859825 -0.017572412 0.2948157 0.16815607 -0.17207365 -0.040566046
-0.06410395 -0.056911938 -0.04467195 -0.24751744 -0.21071365 0.072154224 0.0061122887 -0.09426093
-0.22278191 -0.04149437 -0.01946863 -0.083051614 0.1526654 0.23596388 -0.16263968 -0.1154337
0.093410745 -0.020633515 -0.19467032 -0.10684905 -0.1375666 -0.07047056 0.056608763 -0.3073131
-0.017425034 -0.09011159 -0.082379356 0.36033306 -0.039668616 -0.1640026 0.019115787 -0.11404437
-0.2201879 0.05078237 -0.27900827 0.059884235 -0.039372325 -0.12748846 -0.2628944 -0.060961127
-0.10094675 0.018075902 -0.18205507 -0.16414122 -0.018879987 0.21407437 0.32721567 -0.033701148

net.2.weight f4 [64, 64]
00000000: f5be 83be caf0 0a3e 405c aa3b 46ac 113f
00000010: 9cf7 303c da40 933e 1dfb c5bd ee05 99be
00000020: 355e dc3d 38e1 05be 770e 78be 5ea7 c2be
00000030: 7076 c6be c940 133e 74d8 d9bd b10b 17be
00000040: 04ea e23d 73a2 a0be 7e19 a9be ae60 adbe
00000050: 11a1 3c3f d6b0 fbbe 8676 ac3e d3da 0a3e
00000060: f3b1 b4be 1649 b0be a324 ea3e 8a0a 373e
00000070: 38b2 0dbf 976c a4be bc5a 02bd 51fd c6bd
00000080: 3bf5 f53d 243a 8c3e 21ef 32bd 0b9a f0bd
00000090: 3a95 413e edc8 f4be 2d41 e83d 36b1 c7bb
000000a0: 7a6f 0fbf dd46 b0be bf62 823d 1b74 82bd
000000b0: 1b02 253d cae7 86bd a2c9 d7be 57ea 2fbe
000000c0: 807f 01bc 44bc 293e c655 403c ea0a 943e
000000d0: dc79 2e3e 605e 853d 77ae 123e 79b6 1abe
000000e0: 5b22 453e 2a9d 6dbe 7162 9dbd 45dc 57be
000000f0: 8768 ffbb 1b04 9a3e 047d 6dbe 984d d73c
00000100: e5f6 893e 3b16 bb3e 231f 0e3d 3435 853d
00000110: 21e1 cabc 0322 863e 7a8d 05be 2f02 d63e
00000120: 8768 8e3e 5d87 8c3d 2380 1f3e 92ed 28be
00000130: 1d5c 8f3d bb6c 11be 8893 3bbd 60a4 383e
00000140: 3fa1 b5bd da64 f53d 30eb 133e b84d ec3d
00000150: a805 c23d 941a 1ebe 2ff9 4f3d cd71 c0bc
00000160: e32f d1be 1c35 b7bd 2fe5 d7bd 40ef 023f
00000170: 84ef 0c3d 6e64 9fbe fe2f a43e 56e9 923d
00000180: a4ae 313e 5e6d 8abd 9069 ce3d 35b3 ac3e
00000190: d7a4 48bd 1862 66bd 0bf6 923d 1763 a23c
000001a0: ced7 97be 2eae 313d 1a81 7a3e 13aa b1bd
000001b0: 6aea 40bf 0705 7fbe 367c 99bd 2f2c dbbd
000001c0: 837f 26bc 0e66 bc3d 1163 5d3d bcc7 25be
000001d0: b98d 9cbe 5877 b73c 9311 c6be d003 26be
000001e0: fe91 113e 6d80 723a ae27 083f 590d a6ba
000001f0: 8d1c d5bd 29f3 12be 9de0 59bd 77aa 773d
00000200: 98b6 b2be c200 4fbe 577e 363e 474e 8ebd
00000210: c3c6 483c 2918 fb3e 31aa 063d ccf2 abbd
00000220: 3a2e db3d 5c66 8cbd fce9 96be 0cbd eb3c
00000230: 01de 85be 0de6 cc3d fae0 b8bd 109f f83b
00000240: 9d76 10be 249b 80ba c2c0 493c f336 14be
00000250: 7413 023e 5565 313e a3e6 ed3c 5796 22be
00000260: a25f 27be fc86 613d 1e8f 08be c4a7 21bf
00000270: dce7 acbd 776a f7be e9bf 4cbf 98cc 40be
00000280: 635f 123b e746 52be 0b0e d7bc 6a6a b93e
00000290: 1333 bd3d 07c5 8e3c 55c9 823e 11c9 ee3e
000002a0: 5229 213f af56 47bd b0dc d53e 70f5 58be
000002b0: 5b05 ca3e 74b2 ff3d 06c6 b3bd 38fe fabe
000002c0: ea83 6ebd 5b6e f23d 41f1 213e 7f22 14be
000002d0: d2ae 54be c265 7dbe 9dd6 d33d ea56 3c3d
000002e0: 7262 9c3d 179b a83e dd3b 4c3d 5dc8 17be
000002f0: 3e86 5fbf 57de 993d d028 913e 2bbb 983d
00000300: 9be6 1dbe 6c69 acbe b5bf ee3d bc9c 01be
00000310: 1320 b83d e444 b1bd cdd4 ecbd 2dc7 42be
00000320: 95ef 38be 200b 98be 05bf aebc 6030 0e3d
00000330: b08e 1bbd 402c 253e 85df 533c 7b77 9f3d
00000340: d986 80be 5a77 84be 4dca 69be 0a96 7cbe
00000350: 8f34 573e fa9e 44be 7cd2 f4be 341a 88be
00000360: 95ac 313d ffcb 20bd 9eac 58be 86ea 29be
00000370: 2972 833e dfbd e3be e6c0 bbbe 688c 0ebe
00000380: bd73 26be ccbd a9bc 4599 3dbe e9b5 b73b
00000390: c6e2 cbbe e81f e03d ab36 82be 466d 7fbe
000003a0: 3a6d 1c3e face e6bc 6029 953e 4a1d c0be
000003b0: 32f8 6c3d 100a 3abc 6392 38bd 7d73 1cbe
000003c0: 82ba 683e 0906 51bd 48a8 06bf 450d 2dbe
000003d0: d08c 473e 4958 afbd e452 d9be f5e9 303e
000003e0: 9e0b a9bd cb2d 60bd a985 18be 488a 48be
000003f0: fb1e e5be 9a38 b2bb 9aad 73bc c16a 73be
-0.25731626 0.13568416 0.0051989853 0.56903493 0.010801222 0.28760415 -0.09667037 -0.29887336
0.10760156 -0.13074195 -0.24224268 -0.38018316 -0.38762236 0.14380182 -0.10636988 -0.14750554
0.11079791 -0.3137394 -0.33027261 -0.33862823 0.7368327 -0.49158353 0.33684176 0.13560037
-0.35292014 -0.3443076 0.45731077 0.17875114 -0.55350065 -0.32114097 -0.031824812 -0.09716285
0.120096646 0.27388108 -0.043685082 -0.11748131 0.18904582 -0.47809544 0.11340556 -0.0060941232
-0.56029475 -0.34429064 0.063664906 -0.063698016 0.04028521 -0.06587179 -0.4214602 -0.17179237
-0.0079039335 0.16575724 0.0117392 0.28914577 0.17038673 0.06512141 0.14324366 -0.1510867
0.19251387 -0.23204485 -0.07684792 -0.2108012 -0.007794443 0.30081257 -0.23192221 0.026282117
0.26946178 0.36540398 0.034697663 0.06504288 -0.024765553 0.26197824 -0.1304225 0.4179854
0.27814123 0.06861756 0.15576224 -0.16496876 0.06999991 -0.14201634 -0.045794994 0.18031454
-0.08868646 0.119821265 0.14445186 0.11538261 0.09473735 -0.15439826 0.05077475 -0.023491764
-0.40856847 -0.08945677 -0.1054176 0.51146317 0.034408107 -0.3113131 0.32067865 0.071734115
0.17351776 -0.067591414 0.10078728 0.33730474 -0.04898533 -0.056245893 0.07175835 0.01982264
-0.29656833 0.043379 0.24463311 -0.08675017 -0.7535769 -0.24904262 -0.074943945 -0.10701787
-0.010162237 0.09199153 0.054049555 -0.16189474 -0.30576876 0.022395775 -0.38685283 -0.16212392
0.14215848 0.00092507043 0.53185546 -0.0012668773 -0.10405836 -0.1435057 -0.053192724 0.060465302
-0.34904933 -0.20215133 0.17821632 -0.06948524 0.01225442 0.4904187 0.03287715 -0.08395919
0.107021764 -0.06855461 -0.2947539 0.028776668 -0.26145938 0.10004816 -0.09027286 0.007587321
-0.14107747 -0.000981186 0.012314023 -0.14474086 0.12702733 0.17323811 0.02904064 -0.15877663
-0.16345075 0.05506037 -0.13335845 -0.63146615 -0.08442661 -0.48323414 -0.7998033 -0.18828046
0.0022334687 -0.2053486 -0.026251813 0.36214 0.09238257 0.017427934 0.2554423 0.46637776
0.62953675 -0.048666652 0.41769934 -0.21187377 0.3945721 0.12485209 -0.08778004 -0.4902208
-0.05823127 0.11837455 0.15814687 -0.14466284 -0.20769814 -0.24745849 0.103436686 0.045981325
0.076359645 0.32930824 0.049861778 -0.14822526 -0.8731421 0.07513111 0.2835145 0.074575745
-0.1542 -0.3367418 0.11657659 -0.12657446 0.08990493 -0.08655718 -0.11564026 -0.19021292
-0.18060143 -0.29695988 -0.02133132 0.034714103 -0.037977874 0.16130161 0.012931709 0.07786461
-0.2510288 -0.25872308 -0.22831078 -0.2466661 0.21016143 -0.1920127 -0.47816837 -0.2658249
0.043377478 -0.039257046 -0.21159598 -0.1659337 0.25673035 -0.44480798 -0.36670607 -0.13920748
-0.16255088 -0.020720385 -0.18515499 0.005606402 -0.39821452 0.10943586 -0.25432333 -0.24944028
0.15276042 -0.028174866 0.2913313 -0.37522346 0.057853885 -0.011354938 -0.04506148 -0.1527843
0.22727397 -0.051031146 -0.52600527 -0.16899593 0.1948731 -0.08561761 -0.42446053 0.17276748
-0.08254169 -0.05473117 -0.14894737 -0.19584 -0.447502 -0.0054388763 -0.014872933 -0.23771192

net.2.bias f4 [64]
00000000: a914 18bb 2257 273e 1faa a1bd 8e1b 82bd
00000010: 9b6b ba3e 5bf6 c5be be46 183e 661b 243c
00000020: 22c7 c63e 0587 4c3f 7dfa 7cbe 7063 1d3e
00000030: 4451 363f b6c6 23be 5366 f3bd e63b 90bd
00000040: a769 c43c ce4c 56bd 56d5 1bbe 25f4 a93e
00000050: 2663 2d3f 1adf 643f 7eae 5fbe 9732 ffbd
00000060: d2cf d8bd ac11 e0bd f547 15be 6118 be3c
00000070: 13cf 86be 1aba b13e f264 26be b047 253e
00000080: 310c 68be 331a e33e 4bb0 e63e ca47 bdbd
00000090: 3b38 67be dd8f 83be 5b15 0f3f 78a3 ce3d
000000a0: 895a 98be 3325 603f a877 3d3f 9d95 743b
000000b0: 940c 1f3e 28fa 3cbe 49e0 2c3f 9c56 8dbc
000000c0: 6511 65bd 0cba b2be 330b ffbd f0eb 2a3f
000000d0: 4cdc 393d c955 98be dcf7 b53e ffff 263d
000000e0: 935a 99be 642a 60be 3eac e13d 9385 72be
000000f0: 2cdc 063d e803 303f 4153 ef3d ea97 35be
-0.0023205674 0.16341832 -0.07893776 -0.06352912 0.3641022 -0.38664517 0.14870736 0.010016298
0.388238 0.79893523 -0.24704929 0.15369964 0.7121775 -0.15993771 -0.11884751 -0.07042675
0.02397616 -0.05231934 -0.152181 0.3319408 0.67729414 0.89402926 -0.21843907 -0.12460821
-0.105865136 -0.10940871 -0.1457823 0.023204984 -0.2632986 0.34712297 -0.16249445 0.16140628
-0.226609 0.44355926 0.45056376 -0.09242208 -0.22580044 -0.25695696 0.5589196 0.10089773
-0.29756573 0.8755676 0.74010706 0.0037320622 0.15532142 -0.18454802 0.6752973 -0.017253213
-0.05592479 -0.34907568 -0.12453308 0.6676626 0.045376107 -0.2975295 0.35540664 0.04077148
-0.29951915 -0.2189117 0.11019181 -0.23683767 0.032924816 0.6875596 0.11685801 -0.17733732

net.4.weight f4 [4, 64]
00000000: 4fb4 2bbd d2a2 5c3e 3126 1c3f 46fd fabe
00000010: 5fd0 313e 5cd7 a93b 7930 673e 364d 13bf
00000020: de29 593e 7004 3a3e 9a87 35be 5172 be3d
00000030: ce74 703e 20c3 72bd 1a83 e1bc b6e7 823e
00000040: d36a a23e d016 47be f0f7 93bd 5df6 533e
00000050: 2679 763e 2169 883e d34c 2c3e f7d6 91bc
00000060: 762c 87be 31a8 03be 31b8 efbd 5a36 623e
00000070: 5b99 21bd ccd4 a23d 498f 3bbe f114 203e
00000080: be96 09bd c475 493e b518 153e dd45 69b9
00000090: c497 fa3d 97f6 3abf 2520 753e a68c 3d3e
000000a0: 4d9f 03bf 91a7 6e3e 2ce9 423e 213f 1dbe
000000b0: 2121 993e ac60 5dbe e28d 843e 0dba 893e
000000c0: ad96 56be 403d d6bc 60c7 443d 2b76 a43e
000000d0: ee06 8cbe 14a5 8fbe 0afa 743e 16c9 a53e
000000e0: 0756 cabe d737 cdbe ad4a 243f 14a0 af3e
000000f0: b6a7 7f3e f741 9b3e 33e6 1abe 2e02 1ebe
00000100: 565e d73e 6854 563e 439f 2e3f f415 003e
00000110: b5f6 203e 28e0 023d 6f4a 663e f7b1 ea3d
00000120: b98a 273e 07c0 563e e3a4 47be 9429 d93d
00000130: 8ee9 5c3e f409 a53e 83ca 2bbb 628c 8c3e
00000140: 2ef6 b83e f292 88be 6dcb 97be 21d8 5b3e
00000150: 73c4 7e3e 1f4b a83e 4e23 bcbe 37c0 ca3d
00000160: bcd7 593d d41a f4bd a210 dfbd df43 c73e
00000170: fe61 5e3e 3c93 ed3d 60a6 96bd fe55 1e3e
00000180: 28fa f1bc 1626 123e 78db 333e b9a9 79bd
00000190: 9e91 fcbc 273a 4fbd efd8 673e 51e5 233e
000001a0: f01d 36be 1c7c 833e a744 373e c406 c93c
000001b0: 4e83 e13d ece4 8f3d 2547 8d3e d4bc 383e
000001c0: db56 823e 15a7 f6bd 21b9 823e 135b 953e
000001d0: d3ad 91be 4e5a 85be ffdc 5d3e 75b6 cd3e
000001e0: 3ff2 16bd 1271 aabd cae0 053f cb93 8fbe
000001f0: d75b 40be 7cad 043e 6ec3 23be 9c2f afbd
00000200: e6d9 ea3e 25c9 e63d c7b5 a2bd 7b5c 1b3e
00000210: 4418 4a3e 82e1 6c3e c51a a33e 7b47 033f
00000220: c9ed 2f3e 80ff 803e a6a6 93be 0a42 cf3e
00000230: 6c44 a53e dded 84be ae1c 75bd ba2e 3b3f
00000240: a7c1 a83e 2cfc 07bf ab6e 43bf 8d4b ddbd
00000250: 44f8 093e dddb 8a3e 91ff fbbe a97a ca3c
00000260: 94ca 6a3e 8d26 07be 36bb 40be fabc c4bd
00000270: 6410 5e3d ace3 8e3e 96e7 053e 0e23 b3bd
00000280: dbce 83be 6d8d 723d e760 5f3e 9b4f c33d
00000290: a56f ecbe 683a 0abf aa07 4a3e 050e c13e
000002a0: de3a 803d f71b 8e3e 3154 683e 0824 423d
000002b0: ebd1 753e 8126 86be c55e 7f3e 1910 883e
000002c0: 44b0 a03e 0801 94be 060e 4d3f 9187 a93e
000002d0: 53fa 01bf 41ca 133e 9f7f fb3c 809c 0f3e
000002e0: 8576 90bd f360 92be 1940 203f 09a5 91be
000002f0: 403e e73e da6f 7b3e 804a 1abf b643 323e
00000300: fc98 933e 9e27 8c3d 39d2 b5be 5a01 cabe
00000310: 55a4 613d 0031 23be 202f 8f3e 81c9 af3c
00000320: 5d79 5a3e 7e3e 9e3e d72a 0fbb f769 533e
00000330: f519 813e ae64 343e f79f 373d 43e0 18be
00000340: 941f ac3e 6bc3 80be 4efe 183b 3fc0 053e
00000350: fcb1 253e 55bd 8e3e 15a9 aabe 1d00 513d
00000360: a3be 7c3e 7709 56bf c9d4 c9bd 809b 173f
00000370: a616 b8be ade5 8f3e a4d3 143e f625 c63d
00000380: e7e6 50be 1e4f 0c3e 7b66 8b3b cf75 b03a
00000390: 3338 adbe 9777 3abf 049a 873e 3749 b83d
000003a0: 647e bbbd 5e16 ab3e 3088 a53e ba28 0ebe
000003b0: f2d7 bb3e 769c 8ebe e6b6 203e 074a 83be
000003c0: 4ab8 893e 0e03 b7be 0517 8c3f 8a0a 8f3e
000003d0: 9794 f8be 1119 c6bd 5554 033e 0a91 bf3e
000003e0: faf3 b13d 6442 b13d 708a 1c3f d57a 93be
000003f0: de3a c8be 57c8 263e cf62 08bf d337 ae3d
-0.041920003 0.21546486 0.60995775 -0.49021357 0.17364644 0.0051831435 0.22577085 -0.5753969
0.21207377 0.18165755 -0.17727509 0.09299148 0.23482057 -0.059268117 -0.027528334 0.25567406
0.31722125 -0.19442296 -0.07225025 0.20699449 0.24069652 0.26642707 0.16826181 -0.017802699
-0.26401109 -0.12857129 -0.117050536 0.22091046 -0.03945289 0.07950744 -0.18316378 0.15632989
-0.033591025 0.1967383 0.14560206 -0.00022246638 0.12235978 -0.73032516 0.23938043 0.18510684
-0.5141495 0.23306109 0.1903426 -0.15356113 0.29908088 -0.21618909 0.25889498 0.26899758
-0.20955916 -0.026152253 0.0480417 0.32121405 -0.27349037 -0.28055632 0.23923507 0.3237998
-0.3951876 -0.40081665 0.64176446 0.34301817 0.2496632 0.30323765 -0.15126877 -0.15430519
0.4206416 0.20930636 0.68211764 0.12508374 0.15719111 0.031952053 0.22489332 0.11459725
0.16361512 0.2097169 -0.19496493 0.106036335 0.21573469 0.32234156 -0.0026213236 0.27450854
0.3612532 -0.2667461 -0.2964739 0.21469165 0.24879627 0.32869813 -0.36745685 0.09899943
0.053184256 -0.119191796 -0.10891844 0.3891897 0.21717069 0.11600348 -0.07355952 0.15462491
-0.02953823 0.14272341 0.1756419 -0.060952876 -0.030831154 -0.050592568 0.22641347 0.16005446
-0.17784858 0.25680625 0.17897283 0.024539359 0.110113725 0.07026085 0.2759334 0.18040782
0.2545689 -0.12043587 0.25531867 0.29171047 -0.2845293 -0.2604546 0.21666335 0.40178266
-0.036852118 -0.08322348 0.52296126 -0.28042445 -0.18785034 0.12956804 -0.1599252 -0.08554003
0.45869368 0.11268834 -0.079448275 0.15171997 0.19735819 0.231329 0.3185636 0.51280946
0.17180552 0.2519493 -0.2883808 0.4048007 0.32278764 -0.25962725 -0.059841804 0.73118174
0.32960245 -0.5311916 -0.7634074 -0.10805426 0.13473612 0.27120867 -0.4921842 0.024716692
0.2292884 -0.131983 -0.18821415 -0.09606357 0.05421485 0.27908075 0.13076624 -0.087469205
-0.25743756 0.059216905 0.21814309 0.09536668 -0.46178928 -0.5399537 0.19729486 0.3770601
0.06261228 0.2775571 0.22688366 0.047397643 0.24005859 -0.2620125 0.24938495 0.26574782
0.3138448 -0.28907037 0.80099523 0.3311124 -0.5077259 0.14432622 0.030700503 0.14024544
-0.07053856 -0.2858959 0.62597805 -0.28446224 0.4516468 0.24554387 -0.6026993 0.17408642
0.28827655 0.06843494 -0.3551195 -0.39454156 0.05508836 -0.15936661 0.2796564 0.02145839
0.21335359 0.30907053 -0.0021845603 0.20645891 0.25215116 0.17616531 0.04483029 -0.14929299
0.33617842 -0.25149092 0.0023344937 0.13061617 0.16181177 0.27878824 -0.33332124 0.0510255
0.24682097 -0.8360819 -0.09855039 0.5922165 -0.3595478 0.28104916 0.1453386 0.09675209
-0.20400582 0.13702056 0.00425416 0.0013462844 -0.3383194 -0.7283873 0.26484692 0.089983396
-0.091549665 0.33415502 0.32330465 -0.13882723 0.3668819 -0.27853745 0.1569477 -0.25642416
0.26898414 -0.35744518 1.0944525 0.27937728 -0.48550865 -0.0967275 0.12825139 0.37415344
0.08689113 0.08655241 0.6114874 -0.2880465 -0.39107412 0.16287361 -0.5327577 0.085067414

net.4.bias f4 [4]
00000000: 64f2 183f 2c23 033f 4916 ea3e 844d f83e
0.5974486 0.51225543 0.45720127 0.4849664
